test_result/best_model.pth (torch, 560546 bytes, 19 tensors)

fc1.weight f4 [256, 5]
0.325129 0.34161547 -0.13875847 -0.43508524 0.06478862 -0.123636864 -0.28939706 0.12599058
0.28293738 -0.3267397 -0.15222265 -0.059625875 -0.15539195 0.15465331 -0.018218275 0.19199759
0.1395669 0.40211195 0.29894823 0.24547881 -0.1264282 -0.06204169 -0.26189244 0.13126707
0.02922961 -0.19581911 -0.22973675 0.18654789 0.08054911 -0.25616166 0.22094585 -0.017696196
-0.21407267 -0.1590824 -0.42201355 0.07358923 -0.4384624 -0.20288675 0.37062562 -0.02377717
-0.2385508 0.3780915 -0.3190279 -0.30852076 0.3454942 -0.11947381 0.19120042 -0.15415733
0.18481728 0.27666223 -0.31297633 -0.35045734 -0.24552011 0.08483273 -0.31027123 0.12161148
-0.3335625 0.20045565 0.37359872 -0.01150981 0.11739274 0.1282292 0.029057566 0.29929283
-0.3864953 0.21374866 0.12486355 0.10142708 -0.06269955 0.4409866 0.37734023 0.3162546
0.019797245 -0.28526857 -0.2980276 0.12802888 0.17515714 -0.059914827 0.06359402 0.012326763
0.15349212 -0.21783504 0.18615974 -0.21731901 -0.28672218 -0.045216408 -0.10384571 0.13647032
-0.20725386 0.18160462 -0.10630321 -0.35680357 -0.3899015 0.10556244 -0.35319817 0.33977598
0.41873366 -0.15738796 0.05514529 0.15708399 0.2233433 0.24073982 -0.16184029 -0.25701198
-0.4092926 -0.04763159 -0.07590618 0.34416327 0.17499071 0.14140111 -0.36081535 0.28413156
-0.22970349 0.10727346 -0.3185016 0.2622948 -0.19328213 0.25885963 -0.102351464 -0.42516783
-0.16206588 0.16177996 -0.22809589 -0.073095426 -0.29081702 0.09490925 -0.04047694 -0.30695602
0.35438314 -0.042446434 -0.30120236 -0.296476 -0.40283638 -0.17562556 0.4188428 -0.38956514
-0.038616862 0.35762164 -0.42167148 -0.41487172 -0.34301344 0.074505344 -0.09665906 -0.26291573
-0.3046044 -0.08310918 -0.40360683 -0.2198944 -0.3269793 0.062460527 0.005143128 -0.3261325
0.42865533 -0.0253921 0.32645488 0.3325322 0.24533977 0.26825157 -0.27973303 0.09539401
-0.061961286 -0.14248039 -0.41536093 0.24679983 -0.008582693 0.016310753 0.3216934 -0.1914394
-0.38850006 0.018471863 0.39194703 0.15905243 -0.37016606 -0.35473064 -0.18777888 -0.18399985
-0.013548661 0.22500657 0.3498256 0.3301343 0.28663978 0.06484059 0.11091056 -0.37051395
-0.039489955 -0.28113562 0.28681105 -0.031468257 0.18238488 -0.40591916 0.08746936 0.25298196
-0.3644489 -0.13807707 0.043369304 -0.05381737 -0.43184337 -0.34608993 -0.30740255 0.42803907
0.36339244 0.05811733 -0.33993894 -0.3406253 0.17540155 -0.3701537 -0.12569425 -0.15654835
0.27717686 0.14331785 -0.31273314 0.38644102 -0.16041896 0.22555086 0.15425138 -0.4116138
0.3149185 -0.45119974 0.384438 -0.18908726 -0.25534812 0.0627111 0.089611985 -0.42103148
-0.14176358 -0.3842034 -0.26702714 -0.118838504 0.043281946 -0.08868912 0.08316549 0.13385996
0.32856858 0.35315272 0.019364929 0.22980103 0.059262183 0.23326993 0.14089744 0.14525637
0.09257383 0.37897548 -0.20531358 -0.20365186 0.3402839 0.0075205388 0.19815262 0.14048617
-0.13246025 -0.019389136 -0.05403444 0.3328172 -0.0952256 -0.42284992 -0.38614178 -0.23301956
00000000: 4f77 a63e 39e8 ae3e b316 0ebe 7ec3 debe
00000010: e5af 843d 5335 fdbd da2b 94be ad03 013e
00000020: 2bdd 903e 6d4a a7be 41e0 1bbe 433a 74bd
00000030: 111f 1fbe 705d 1e3e 7e3e 95bc 049b 443e
00000040: a0ea 0e3e 9ee1 cd3e be0f 993e cc5e 7b3e
00000050: 6576 01be 6d1f 7ebd c416 86be e06a 063e
00000060: ef72 ef3c ce84 48be 1c40 6bbe 6906 3f3e
00000070: eff6 a43d 9f27 83be a13f 623e 9df7 90bc
00000080: de35 5bbe 7fe6 22be 2912 d8be f3b5 963d
00000090: 257e e0be 8bc1 4fbe a4c2 bd3e 57c8 c2bc
000000a0: a946 74be 3695 c13e a057 a3be 6ff6 9dbe
000000b0: 9ee4 b03e afae f4bd 0bca 433e 6bdb 1dbe
000000c0: be40 3d3e aca6 8d3e 6f3e a0be 256f b3be
000000d0: a069 7bbe c8bc ad3d dfdb 9ebe 710f f93d
000000e0: b4c8 aabe 3f44 4d3e 5548 bf3e a493 3cbc
000000f0: 9b6b f03d 844e 033e 220a ee3c e93c 993e
00000100: b6e2 c5be eee0 5a3e 76b8 ff3d 00b9 cf3d
00000110: 9f68 80bd ffc8 e13e bd32 c13e 1fec a13e
00000120: d52d a23c b90e 92be 1397 98be 011a 033e
00000130: 655c 333e 4069 75bd 953d 823d 31f6 493c
00000140: 0a2d 1d3e 2610 5fbe a9a0 3e3e e088 5ebe
00000150: 40cd 92be d734 39bd 0fad d4bd e0be 0b3e
00000160: 5b3a 54be 90f6 393e 7fb5 d9bd f5ae b6be
00000170: 2ba1 c7be 1f31 d83d 64d6 b4be 1ef7 ad3e
00000180: 4264 d63e 4f2a 21be 07e0 613d a0da 203e
00000190: 1bb4 643e 8084 763e 76b9 25be 1397 83be
000001a0: cd8e d1be 5819 43bd b374 9bbd 2b36 b03e
000001b0: c430 333e 74cb 103e cabc b8be b179 913e
000001c0: 6437 6bbe 30b2 db3d a412 a3be 814b 863e
000001d0: c0eb 45be 4089 843e a59d d1bd 99af d9be
000001e0: 99f4 25be a5a9 253e f891 69be 0eb3 95bd
000001f0: f8e5 94be c85f c23d 26cb 25bd 5729 9dbe
00000200: b571 b53e 50dc 2dbd 3237 9abe b4cb 97be
00000210: 9240 cebe 30d7 33be 9072 d63e 1575 c7be
00000220: b72c 1ebd 2f1a b73e 53e5 d7be 116a d4be
00000230: 759f afbe 4296 983d 2ff5 c5bd e49c 86be
00000240: 1cf5 9bbe 2535 aabd 8ea5 cebe ff2b 61be
00000250: d569 a7be 9cd6 7f3d af87 a83b d7fa a6be
00000260: b678 db3e 1803 d0bc 1825 a73e a941 aa3e
00000270: 593a 7b3e 4558 893e 2b39 8fbe ef5d c33d
00000280: 1ecb 7dbd 61e6 11be 30aa d4be 18b9 7c3e
00000290: 6c9e 0cbc 219e 853c ffb4 a43e b108 44be
000002a0: 7be9 c6be 4e52 973c 48ad c83e a4de 223e
000002b0: 6886 bdbe 419f b5be 1b49 40be 756a 3cbe
000002c0: 34fb 5dbc 1f68 663e 571c b33e 5d07 a93e
000002d0: 73c2 923e 25cb 843d 1325 e33d 01b4 bdbe
000002e0: 38c0 21bd 02f1 8fbe e6d8 923e dce4 00bd
000002f0: 1ac3 3a3e a3d4 cfbe 2323 b33d da86 813e
00000300: 0c99 babe 1364 0dbe 03a4 313d 9a6f 5cbd
00000310: 931a ddbe b332 b1be de63 9dbe f027 db3e
00000320: 930e ba3e 700c 6e3d 7a0c aebe 7066 aebe
00000330: 779c 333e c984 bdbe feb5 00be 364e 20be
00000340: 20ea 8d3e eac1 123e 8f1e a0be 99db c53e
00000350: de44 24be cef6 663e 13f4 1d3e 0bbf d2be
00000360: ff3c a13e a703 e7be 0fd5 c43e 17a0 41be
00000370: fdbc 82be ad6e 803d 7d86 b73d 7091 d7be
00000380: 792a 11be 4fb6 c4be c8b7 88be 9a61 f3bd
00000390: 6948 313d a4a2 b5bd ab52 aa3d 9612 093e
000003a0: 243a a83e 6fd0 b43e 33a3 9e3c f650 6b3e
000003b0: e7bc 723d 50de 6e3e 6b47 103e 16be 143e
000003c0: 5997 bd3d 1309 c23e b93d 52be 1d8a 50be
000003d0: b139 ae3e da6e f63b 85e8 4a3e 9bdb 0f3e
000003e0: a9a3 07be f7d5 9ebc 3853 5dbd 0467 aa3e
000003f0: a405 c3bd c97f d8be 60b4 c5be ae9c 6ebe

fc1.bias f4 [256]
0.21266006 -0.018178288 -0.35204437 0.38452032 -0.017276254 0.30624363 -0.23023795 0.079029314
-0.41702655 0.21631628 -0.06677289 0.122279875 0.097100556 0.054496348 -0.25386116 -0.11887063
0.25043705 0.044037823 0.09013457 0.32939583 -0.3447955 -0.1130802 0.36782816 0.029196259
-0.2506778 0.3698045 -0.025914863 -0.16201356 -0.32227522 0.21329053 -0.3919234 -0.035810303
0.3643665 0.3757145 0.2809508 0.38692963 0.4049346 0.30114356 0.3324849 -0.21924795
0.27451128 0.298058 0.02546373 -0.4501957 0.41322166 -0.43027362 0.32425812 -0.18087162
-0.41657457 0.33194262 -0.21120867 -0.41772026 0.19676423 -0.38002664 0.30072367 -0.043112345
-0.27282625 0.0999086 -0.1683711 0.0652634 0.24776009 -0.3701009 -0.12574823 -0.23934378
0.35999143 0.23093542 -0.39875752 -0.13448513 -0.21272974 -0.16418809 -0.23467377 -0.2864265
-9.999792e-06 0.08377708 -0.26813513 0.027660519 -0.3312365 -0.40106532 -0.32730824 0.07925018
-0.2583625 0.27829868 0.07327523 0.058183916 0.39314556 0.037921082 -0.37349924 0.3925691
-0.3103843 -0.086449236 0.13425684 0.03848031 0.025222167 -0.2954477 0.26864523 -0.21373028
-0.40443224 0.10933477 0.32197288 0.3003408 -0.36240155 0.11959251 0.039332677 -0.40530655
0.2691792 -0.30472815 0.023709068 0.43095767 0.39397228 0.0017386859 0.24427067 0.04638523
0.28437248 -0.22863702 0.0022129484 -0.17718303 0.13602208 0.22313434 0.25705034 -0.1870863
0.35437143 0.3510797 -0.33783475 -0.10600642 -0.17166717 -0.36992446 0.34788862 0.06330404
0.31198618 0.41964823 -0.30548248 -0.41905174 0.12913197 -0.072942555 0.24310331 0.0068210075
-0.15009382 0.40219328 -0.18652068 0.41514435 -0.29723608 0.28534997 0.2487506 -0.04138468
0.41913462 -0.29861915 0.2428697 -0.15176627 0.0713054 0.3357516 -0.3523304 -0.014226919
0.307922 -0.007135511 0.08485243 -0.024041273 -0.23024955 -0.12703384 0.090065956 -0.31893486
0.4148794 0.0063742124 0.026530664 0.37242338 -0.41105366 0.31479108 0.09818911 0.37450576
-0.041812252 -0.22354998 -0.3585524 0.33949018 -0.28555182 -0.30681217 0.26171675 0.40392718
0.39981574 -0.30146685 -0.42694625 -0.30783933 -0.11673475 -0.05539159 0.012019526 0.013993837
0.42568803 -0.3717582 0.26484025 0.34773037 -0.29811174 -0.19327264 0.40193194 0.25428542
-0.21901214 0.089263774 -0.36493343 -0.4294501 -0.1649674 -0.24489117 0.41343838 0.3786575
0.33293346 -0.0064234026 -0.21652119 0.4076402 0.13687563 -0.24289435 -0.007661059 -0.25505695
0.33657655 -0.05456242 0.1674295 0.053159904 0.37789068 0.3583126 0.3332354 0.041619603
0.25746045 -0.37960172 -0.2434742 0.11440599 0.1538368 0.29993686 0.4166436 0.19079557
0.33257344 0.022839658 -0.06400167 0.4523801 -0.0022600805 0.29647937 0.32501996 0.3510918
-0.39110848 -0.44939378 -0.19484556 0.4267381 0.3780509 0.33769327 -0.049692754 0.13485262
-0.2410225 0.24985717 -0.3686776 0.35373142 -0.17892824 0.017502682 0.3363988 0.029371647
-0.29456925 -0.35639465 0.036098022 0.27703878 0.23701091 -0.15500368 -0.2885439 -0.42528003
00000000: 8fc3 593e a2ea 94bc 293f b4be d9df c43e
00000010: ee86 8dbc f7cb 9c3e 7fc3 6bbe 1fda a13d
00000020: 8184 d5be 0482 5d3e 3ac0 88bd df6d fa3d
00000030: a8dc c63d 9037 5f3d 17fa 81be 7272 f3bd
00000040: 4939 803e 0161 343d 7998 b83d 92a6 a83e
00000050: 0989 b0be 9896 e7bd f953 bc3e fe2c ef3c
00000060: d758 80be 0457 bd3e 684b d4bc e2e6 25be
00000070: 4201 a5be d568 5a3e 2faa c8be d3ad 12bd
00000080: 3f8e ba3e a75d c03e c9d8 8f3e a41b c63e
00000090: 9753 cf3e 7d2f 9a3e 763b aa3e 8982 60be
000000a0: be8c 8c3e 0f9b 983e 5099 d03c 0d80 e6be
000000b0: ca91 d33e d34c dcbe 2905 a63e 6936 39be
000000c0: 4349 d5be 62f4 a93e 1647 58be 6edf d5be
000000d0: 907c 493e da92 c2be 74f8 993e 9296 30bd
000000e0: e2af 8bbe e19c cc3d 7969 2cbe d1a8 853d
000000f0: d2b4 7d3e dd7d bdbe 25c4 00be 8916 75be
00000100: cc50 b83e 567a 6c3e f229 ccbe 78b6 09be
00000110: d3d5 59be ec20 28be 524e 70be 7fa6 92be
00000120: c8c4 27b7 5193 ab3d 0249 89be 5098 e23c
00000130: d597 a9be 6f58 cdbe f294 a7be eb4d a23d
00000140: 1748 84be 2a7d 8e3e 5311 963d 4252 6e3d
00000150: 604a c93e 2353 1b3d 4b3b bfbe d1fe c83e
00000160: b1ea 9ebe 4c0c b1bd a07a 093e 889d 1d3d
00000170: b89e ce3c ec44 97be de8b 893e 1cdc 5abe
00000180: be11 cfbe e8ea df3d a1d9 a43e 45c6 993e
00000190: b28c b9be ebec f43d 4d1b 213d 5784 cfbe
000001a0: dbd1 893e 5405 9cbe 8539 c23c 7ca6 dc3e
000001b0: bcb6 c93e 9ee4 e33a 1722 7a3e 70fe 3d3d
000001c0: 4599 913e d31f 6abe 1d07 113b 786f 35be
000001d0: 5f49 0b3e 547d 643e 1a9c 833e 8d93 3fbe
000001e0: 2c70 b53e b8c0 b33e adf8 acbe e519 d9bd
000001f0: 85c9 2fbe bd66 bdbe 751e b23e 8ca5 813d
00000200: a7bc 9f3e 22dc d63e 3368 9cbe f38d d6be
00000210: 2c3b 043e e862 95bd 13f0 783e c282 df3b
00000220: 32b2 19be 47ec cd3e 47ff 3ebe cd8d d43e
00000230: 542f 98be 6419 923e 7ab8 7e3e fb82 29bd
00000240: d098 d63e 9ce4 98be d6b2 783e 9e68 1bbe
00000250: 9108 923d a2e7 ab3e a664 b4be 0618 69bc
00000260: f4a7 9d3e 01d1 e9bb 1cc7 ad3d 34f2 c4bc
00000270: 8ac6 6bbe 2915 02be 8074 b83d 6e4b a3be
00000280: 136b d43e c5de d03b d656 d93c 47ae be3e
00000290: a075 d2be 4c2c a13e 5f17 c93d 38bf bf3e
000002a0: 5343 2bbd 49ea 64be 2e94 b7be a8d1 ad3e
000002b0: d933 92be 7c16 9dbe bdff 853e 8bcf ce3e
000002c0: a6b4 cc3e dd59 9abe b398 dabe 1e9d 9dbe
000002d0: a112 efbd 4be2 62bd 8ced 443c 6846 653c
000002e0: c8f3 d93e 1757 bebe 2499 873e b709 b23e
000002f0: 1aa2 98be 43e9 45be 06ca cd3e b331 823e
00000300: b844 60be edcf b63d 8ed8 babe e2e0 dbbe
00000310: 37ed 28be c0c4 7abe 32ae d33e 65df c13e
00000320: 4176 aa3e 687b d2bb bbb7 5dbe 37b6 d03e
00000330: 2029 0c3e 4cb9 78be 9f09 fbbb d396 82be
00000340: c353 ac3e d87c 5fbd a472 2b3e 33be 593d
00000350: e37a c13e c074 b73e d59d aa3e 5179 2a3d
00000360: dbd1 833e 285b c2be 4d51 79be b04d ea3d
00000370: 6587 1d3e 5391 993e 4f52 d53e ea5f 433e
00000380: 1147 aa3e 3c1a bb3c 4f13 83bd 5d9e e73e
00000390: dc1d 14bb 25cc 973e 0469 a63e 4ec2 b33e
000003a0: 5f3f c8be f116 e6be 9885 47be 6b7d da3e
000003b0: e38f c13e 22e6 ac3e a18a 4bbd ce16 0a3e
000003c0: 9ace 76be 8fda 7f3e 4fc3 bcbe 491c b53e
000003d0: f738 37be c961 8f3c 773c ac3e cf9c f03c
000003e0: c8d1 96be 5c79 b6be 85db 133d 07d8 8d3e
000003f0: fdb2 723e 49b9 1ebe 07bc 93be 4ebe d9be

norm1.weight f4 [256]
1.0 1.0 1.0 1.0 1.0 1.0 1.0 1.0
1.0 1.0 1.0 1.0 1.0 1.0 1.0 1.0
1.0 1.0 1.0 1.0 1.0 1.0 1.0 1.0
1.0 1.0 1.0 1.0 1.0 1.0 1.0 1.0
1.0 1.0 1.0 1.0 1.0 1.0 1.0 1.0
1.0 1.0 1.0 1.0 1.0 1.0 1.0 1.0
1.0 1.0 1.0 1.0 1.0 1.0 1.0 1.0
1.0 1.0 1.0 1.0 1.0 1.0 1.0 1.0
1.0 1.0 1.0 1.0 1.0 1.0 1.0 1.0
1.0 1.0 1.0 1.0 1.0 1.0 1.0 1.0
1.0 1.0 1.0 1.0 1.0 1.0 1.0 1.0
1.0 1.0 1.0 1.0 1.0 1.0 1.0 1.0
1.0 1.0 1.0 1.0 1.0 1.0 1.0 1.0
1.0 1.0 1.0 1.0 1.0 1.0 1.0 1.0
1.0 1.0 1.0 1.0 1.0 1.0 1.0 1.0
1.0 1.0 1.0 1.0 1.0 1.0 1.0 1.0
1.0 1.0 1.0 1.0 1.0 1.0 1.0 1.0
1.0 1.0 1.0 1.0 1.0 1.0 1.0 1.0
1.0 1.0 1.0 1.0 1.0 1.0 1.0 1.0
1.0 1.0 1.0 1.0 1.0 1.0 1.0 1.0
1.0 1.0 1.0 1.0 1.0 1.0 1.0 1.0
1.0 1.0 1.0 1.0 1.0 1.0 1.0 1.0
1.0 1.0 1.0 1.0 1.0 1.0 1.0 1.0
1.0 1.0 1.0 1.0 1.0 1.0 1.0 1.0
1.0 1.0 1.0 1.0 1.0 1.0 1.0 1.0
1.0 1.0 1.0 1.0 1.0 1.0 1.0 1.0
1.0 1.0 1.0 1.0 1.0 1.0 1.0 1.0
1.0 1.0 1.0 1.0 1.0 1.0 1.0 1.0
1.0 1.0 1.0 1.0 1.0 1.0 1.0 1.0
1.0 1.0 1.0 1.0 1.0 1.0 1.0 1.0
1.0 1.0 1.0 1.0 1.0 1.0 1.0 1.0
1.0 1.0 1.0 1.0 1.0 1.0 1.0 1.0
00000000: 0000 803f 0000 803f 0000 803f 0000 803f
00000010: 0000 803f 0000 803f 0000 803f 0000 803f
00000020: 0000 803f 0000 803f 0000 803f 0000 803f
00000030: 0000 803f 0000 803f 0000 803f 0000 803f
00000040: 0000 803f 0000 803f 0000 803f 0000 803f
00000050: 0000 803f 0000 803f 0000 803f 0000 803f
00000060: 0000 803f 0000 803f 0000 803f 0000 803f
00000070: 0000 803f 0000 803f 0000 803f 0000 803f
00000080: 0000 803f 0000 803f 0000 803f 0000 803f
00000090: 0000 803f 0000 803f 0000 803f 0000 803f
000000a0: 0000 803f 0000 803f 0000 803f 0000 803f
000000b0: 0000 803f 0000 803f 0000 803f 0000 803f
000000c0: 0000 803f 0000 803f 0000 803f 0000 803f
000000d0: 0000 803f 0000 803f 0000 803f 0000 803f
000000e0: 0000 803f 0000 803f 0000 803f 0000 803f
000000f0: 0000 803f 0000 803f 0000 803f 0000 803f
00000100: 0000 803f 0000 803f 0000 803f 0000 803f
00000110: 0000 803f 0000 803f 0000 803f 0000 803f
00000120: 0000 803f 0000 803f 0000 803f 0000 803f
00000130: 0000 803f 0000 803f 0000 803f 0000 803f
00000140: 0000 803f 0000 803f 0000 803f 0000 803f
00000150: 0000 803f 0000 803f 0000 803f 0000 803f
00000160: 0000 803f 0000 803f 0000 803f 0000 803f
00000170: 0000 803f 0000 803f 0000 803f 0000 803f
00000180: 0000 803f 0000 803f 0000 803f 0000 803f
00000190: 0000 803f 0000 803f 0000 803f 0000 803f
000001a0: 0000 803f 0000 803f 0000 803f 0000 803f
000001b0: 0000 803f 0000 803f 0000 803f 0000 803f
000001c0: 0000 803f 0000 803f 0000 803f 0000 803f
000001d0: 0000 803f 0000 803f 0000 803f 0000 803f
000001e0: 0000 803f 0000 803f 0000 803f 0000 803f
000001f0: 0000 803f 0000 803f 0000 803f 0000 803f
00000200: 0000 803f 0000 803f 0000 803f 0000 803f
00000210: 0000 803f 0000 803f 0000 803f 0000 803f
00000220: 0000 803f 0000 803f 0000 803f 0000 803f
00000230: 0000 803f 0000 803f 0000 803f 0000 803f
00000240: 0000 803f 0000 803f 0000 803f 0000 803f
00000250: 0000 803f 0000 803f 0000 803f 0000 803f
00000260: 0000 803f 0000 803f 0000 803f 0000 803f
00000270: 0000 803f 0000 803f 0000 803f 0000 803f
00000280: 0000 803f 0000 803f 0000 803f 0000 803f
00000290: 0000 803f 0000 803f 0000 803f 0000 803f
000002a0: 0000 803f 0000 803f 0000 803f 0000 803f
000002b0: 0000 803f 0000 803f 0000 803f 0000 803f
000002c0: 0000 803f 0000 803f 0000 803f 0000 803f
000002d0: 0000 803f 0000 803f 0000 803f 0000 803f
000002e0: 0000 803f 0000 803f 0000 803f 0000 803f
000002f0: 0000 803f 0000 803f 0000 803f 0000 803f
00000300: 0000 803f 0000 803f 0000 803f 0000 803f
00000310: 0000 803f 0000 803f 0000 803f 0000 803f
00000320: 0000 803f 0000 803f 0000 803f 0000 803f
00000330: 0000 803f 0000 803f 0000 803f 0000 803f
00000340: 0000 803f 0000 803f 0000 803f 0000 803f
00000350: 0000 803f 0000 803f 0000 803f 0000 803f
00000360: 0000 803f 0000 803f 0000 803f 0000 803f
00000370: 0000 803f 0000 803f 0000 803f 0000 803f
00000380: 0000 803f 0000 803f 0000 803f 0000 803f
00000390: 0000 803f 0000 803f 0000 803f 0000 803f
000003a0: 0000 803f 0000 803f 0000 803f 0000 803f
000003b0: 0000 803f 0000 803f 0000 803f 0000 803f
000003c0: 0000 803f 0000 803f 0000 803f 0000 803f
000003d0: 0000 803f 0000 803f 0000 803f 0000 803f
000003e0: 0000 803f 0000 803f 0000 803f 0000 803f
000003f0: 0000 803f 0000 803f 0000 803f 0000 803f

norm1.bias f4 [256]
0.0 0.0 0.0 0.0 0.0 0.0 0.0 0.0
0.0 0.0 0.0 0.0 0.0 0.0 0.0 0.0
0.0 0.0 0.0 0.0 0.0 0.0 0.0 0.0
0.0 0.0 0.0 0.0 0.0 0.0 0.0 0.0
0.0 0.0 0.0 0.0 0.0 0.0 0.0 0.0
0.0 0.0 0.0 0.0 0.0 0.0 0.0 0.0
0.0 0.0 0.0 0.0 0.0 0.0 0.0 0.0
0.0 0.0 0.0 0.0 0.0 0.0 0.0 0.0
0.0 0.0 0.0 0.0 0.0 0.0 0.0 0.0
0.0 0.0 0.0 0.0 0.0 0.0 0.0 0.0
0.0 0.0 0.0 0.0 0.0 0.0 0.0 0.0
0.0 0.0 0.0 0.0 0.0 0.0 0.0 0.0
0.0 0.0 0.0 0.0 0.0 0.0 0.0 0.0
0.0 0.0 0.0 0.0 0.0 0.0 0.0 0.0
0.0 0.0 0.0 0.0 0.0 0.0 0.0 0.0
0.0 0.0 0.0 0.0 0.0 0.0 0.0 0.0
0.0 0.0 0.0 0.0 0.0 0.0 0.0 0.0
0.0 0.0 0.0 0.0 0.0 0.0 0.0 0.0
0.0 0.0 0.0 0.0 0.0 0.0 0.0 0.0
0.0 0.0 0.0 0.0 0.0 0.0 0.0 0.0
0.0 0.0 0.0 0.0 0.0 0.0 0.0 0.0
0.0 0.0 0.0 0.0 0.0 0.0 0.0 0.0
0.0 0.0 0.0 0.0 0.0 0.0 0.0 0.0
0.0 0.0 0.0 0.0 0.0 0.0 0.0 0.0
0.0 0.0 0.0 0.0 0.0 0.0 0.0 0.0
0.0 0.0 0.0 0.0 0.0 0.0 0.0 0.0
0.0 0.0 0.0 0.0 0.0 0.0 0.0 0.0
0.0 0.0 0.0 0.0 0.0 0.0 0.0 0.0
0.0 0.0 0.0 0.0 0.0 0.0 0.0 0.0
0.0 0.0 0.0 0.0 0.0 0.0 0.0 0.0
0.0 0.0 0.0 0.0 0.0 0.0 0.0 0.0
0.0 0.0 0.0 0.0 0.0 0.0 0.0 0.0
00000000: 0000 0000 0000 0000 0000 0000 0000 0000
00000010: 0000 0000 0000 0000 0000 0000 0000 0000
00000020: 0000 0000 0000 0000 0000 0000 0000 0000
00000030: 0000 0000 0000 0000 0000 0000 0000 0000
00000040: 0000 0000 0000 0000 0000 0000 0000 0000
00000050: 0000 0000 0000 0000 0000 0000 0000 0000
00000060: 0000 0000 0000 0000 0000 0000 0000 0000
00000070: 0000 0000 0000 0000 0000 0000 0000 0000
00000080: 0000 0000 0000 0000 0000 0000 0000 0000
00000090: 0000 0000 0000 0000 0000 0000 0000 0000
000000a0: 0000 0000 0000 0000 0000 0000 0000 0000
000000b0: 0000 0000 0000 0000 0000 0000 0000 0000
000000c0: 0000 0000 0000 0000 0000 0000 0000 0000
000000d0: 0000 0000 0000 0000 0000 0000 0000 0000
000000e0: 0000 0000 0000 0000 0000 0000 0000 0000
000000f0: 0000 0000 0000 0000 0000 0000 0000 0000
00000100: 0000 0000 0000 0000 0000 0000 0000 0000
00000110: 0000 0000 0000 0000 0000 0000 0000 0000
00000120: 0000 0000 0000 0000 0000 0000 0000 0000
00000130: 0000 0000 0000 0000 0000 0000 0000 0000
00000140: 0000 0000 0000 0000 0000 0000 0000 0000
00000150: 0000 0000 0000 0000 0000 0000 0000 0000
00000160: 0000 0000 0000 0000 0000 0000 0000 0000
00000170: 0000 0000 0000 0000 0000 0000 0000 0000
00000180: 0000 0000 0000 0000 0000 0000 0000 0000
00000190: 0000 0000 0000 0000 0000 0000 0000 0000
000001a0: 0000 0000 0000 0000 0000 0000 0000 0000
000001b0: 0000 0000 0000 0000 0000 0000 0000 0000
000001c0: 0000 0000 0000 0000 0000 0000 0000 0000
000001d0: 0000 0000 0000 0000 0000 0000 0000 0000
000001e0: 0000 0000 0000 0000 0000 0000 0000 0000
000001f0: 0000 0000 0000 0000 0000 0000 0000 0000
00000200: 0000 0000 0000 0000 0000 0000 0000 0000
00000210: 0000 0000 0000 0000 0000 0000 0000 0000
00000220: 0000 0000 0000 0000 0000 0000 0000 0000
00000230: 0000 0000 0000 0000 0000 0000 0000 0000
00000240: 0000 0000 0000 0000 0000 0000 0000 0000
00000250: 0000 0000 0000 0000 0000 0000 0000 0000
00000260: 0000 0000 0000 0000 0000 0000 0000 0000
00000270: 0000 0000 0000 0000 0000 0000 0000 0000
00000280: 0000 0000 0000 0000 0000 0000 0000 0000
00000290: 0000 0000 0000 0000 0000 0000 0000 0000
000002a0: 0000 0000 0000 0000 0000 0000 0000 0000
000002b0: 0000 0000 0000 0000 0000 0000 0000 0000
000002c0: 0000 0000 0000 0000 0000 0000 0000 0000
000002d0: 0000 0000 0000 0000 0000 0000 0000 0000
000002e0: 0000 0000 0000 0000 0000 0000 0000 0000
000002f0: 0000 0000 0000 0000 0000 0000 0000 0000
00000300: 0000 0000 0000 0000 0000 0000 0000 0000
00000310: 0000 0000 0000 0000 0000 0000 0000 0000
00000320: 0000 0000 0000 0000 0000 0000 0000 0000
00000330: 0000 0000 0000 0000 0000 0000 0000 0000
00000340: 0000 0000 0000 0000 0000 0000 0000 0000
00000350: 0000 0000 0000 0000 0000 0000 0000 0000
00000360: 0000 0000 0000 0000 0000 0000 0000 0000
00000370: 0000 0000 0000 0000 0000 0000 0000 0000
00000380: 0000 0000 0000 0000 0000 0000 0000 0000
00000390: 0000 0000 0000 0000 0000 0000 0000 0000
000003a0: 0000 0000 0000 0000 0000 0000 0000 0000
000003b0: 0000 0000 0000 0000 0000 0000 0000 0000
000003c0: 0000 0000 0000 0000 0000 0000 0000 0000
000003d0: 0000 0000 0000 0000 0000 0000 0000 0000
000003e0: 0000 0000 0000 0000 0000 0000 0000 0000
000003f0: 0000 0000 0000 0000 0000 0000 0000 0000

norm1.running_mean f4 [256]
0.0 0.0 0.0 0.0 0.0 0.0 0.0 0.0
0.0 0.0 0.0 0.0 0.0 0.0 0.0 0.0
0.0 0.0 0.0 0.0 0.0 0.0 0.0 0.0
0.0 0.0 0.0 0.0 0.0 0.0 0.0 0.0
0.0 0.0 0.0 0.0 0.0 0.0 0.0 0.0
0.0 0.0 0.0 0.0 0.0 0.0 0.0 0.0
0.0 0.0 0.0 0.0 0.0 0.0 0.0 0.0
0.0 0.0 0.0 0.0 0.0 0.0 0.0 0.0
0.0 0.0 0.0 0.0 0.0 0.0 0.0 0.0
0.0 0.0 0.0 0.0 0.0 0.0 0.0 0.0
0.0 0.0 0.0 0.0 0.0 0.0 0.0 0.0
0.0 0.0 0.0 0.0 0.0 0.0 0.0 0.0
0.0 0.0 0.0 0.0 0.0 0.0 0.0 0.0
0.0 0.0 0.0 0.0 0.0 0.0 0.0 0.0
0.0 0.0 0.0 0.0 0.0 0.0 0.0 0.0
0.0 0.0 0.0 0.0 0.0 0.0 0.0 0.0
0.0 0.0 0.0 0.0 0.0 0.0 0.0 0.0
0.0 0.0 0.0 0.0 0.0 0.0 0.0 0.0
0.0 0.0 0.0 0.0 0.0 0.0 0.0 0.0
0.0 0.0 0.0 0.0 0.0 0.0 0.0 0.0
0.0 0.0 0.0 0.0 0.0 0.0 0.0 0.0
0.0 0.0 0.0 0.0 0.0 0.0 0.0 0.0
0.0 0.0 0.0 0.0 0.0 0.0 0.0 0.0
0.0 0.0 0.0 0.0 0.0 0.0 0.0 0.0
0.0 0.0 0.0 0.0 0.0 0.0 0.0 0.0
0.0 0.0 0.0 0.0 0.0 0.0 0.0 0.0
0.0 0.0 0.0 0.0 0.0 0.0 0.0 0.0
0.0 0.0 0.0 0.0 0.0 0.0 0.0 0.0
0.0 0.0 0.0 0.0 0.0 0.0 0.0 0.0
0.0 0.0 0.0 0.0 0.0 0.0 0.0 0.0
0.0 0.0 0.0 0.0 0.0 0.0 0.0 0.0
0.0 0.0 0.0 0.0 0.0 0.0 0.0 0.0
00000000: 0000 0000 0000 0000 0000 0000 0000 0000
00000010: 0000 0000 0000 0000 0000 0000 0000 0000
00000020: 0000 0000 0000 0000 0000 0000 0000 0000
00000030: 0000 0000 0000 0000 0000 0000 0000 0000
00000040: 0000 0000 0000 0000 0000 0000 0000 0000
00000050: 0000 0000 0000 0000 0000 0000 0000 0000
00000060: 0000 0000 0000 0000 0000 0000 0000 0000
00000070: 0000 0000 0000 0000 0000 0000 0000 0000
00000080: 0000 0000 0000 0000 0000 0000 0000 0000
00000090: 0000 0000 0000 0000 0000 0000 0000 0000
000000a0: 0000 0000 0000 0000 0000 0000 0000 0000
000000b0: 0000 0000 0000 0000 0000 0000 0000 0000
000000c0: 0000 0000 0000 0000 0000 0000 0000 0000
000000d0: 0000 0000 0000 0000 0000 0000 0000 0000
000000e0: 0000 0000 0000 0000 0000 0000 0000 0000
000000f0: 0000 0000 0000 0000 0000 0000 0000 0000
00000100: 0000 0000 0000 0000 0000 0000 0000 0000
00000110: 0000 0000 0000 0000 0000 0000 0000 0000
00000120: 0000 0000 0000 0000 0000 0000 0000 0000
00000130: 0000 0000 0000 0000 0000 0000 0000 0000
00000140: 0000 0000 0000 0000 0000 0000 0000 0000
00000150: 0000 0000 0000 0000 0000 0000 0000 0000
00000160: 0000 0000 0000 0000 0000 0000 0000 0000
00000170: 0000 0000 0000 0000 0000 0000 0000 0000
00000180: 0000 0000 0000 0000 0000 0000 0000 0000
00000190: 0000 0000 0000 0000 0000 0000 0000 0000
000001a0: 0000 0000 0000 0000 0000 0000 0000 0000
000001b0: 0000 0000 0000 0000 0000 0000 0000 0000
000001c0: 0000 0000 0000 0000 0000 0000 0000 0000
000001d0: 0000 0000 0000 0000 0000 0000 0000 0000
000001e0: 0000 0000 0000 0000 0000 0000 0000 0000
000001f0: 0000 0000 0000 0000 0000 0000 0000 0000
00000200: 0000 0000 0000 0000 0000 0000 0000 0000
00000210: 0000 0000 0000 0000 0000 0000 0000 0000
00000220: 0000 0000 0000 0000 0000 0000 0000 0000
00000230: 0000 0000 0000 0000 0000 0000 0000 0000
00000240: 0000 0000 0000 0000 0000 0000 0000 0000
00000250: 0000 0000 0000 0000 0000 0000 0000 0000
00000260: 0000 0000 0000 0000 0000 0000 0000 0000
00000270: 0000 0000 0000 0000 0000 0000 0000 0000
00000280: 0000 0000 0000 0000 0000 0000 0000 0000
00000290: 0000 0000 0000 0000 0000 0000 0000 0000
000002a0: 0000 0000 0000 0000 0000 0000 0000 0000
000002b0: 0000 0000 0000 0000 0000 0000 0000 0000
000002c0: 0000 0000 0000 0000 0000 0000 0000 0000
000002d0: 0000 0000 0000 0000 0000 0000 0000 0000
000002e0: 0000 0000 0000 0000 0000 0000 0000 0000
000002f0: 0000 0000 0000 0000 0000 0000 0000 0000
00000300: 0000 0000 0000 0000 0000 0000 0000 0000
00000310: 0000 0000 0000 0000 0000 0000 0000 0000
00000320: 0000 0000 0000 0000 0000 0000 0000 0000
00000330: 0000 0000 0000 0000 0000 0000 0000 0000
00000340: 0000 0000 0000 0000 0000 0000 0000 0000
00000350: 0000 0000 0000 0000 0000 0000 0000 0000
00000360: 0000 0000 0000 0000 0000 0000 0000 0000
00000370: 0000 0000 0000 0000 0000 0000 0000 0000
00000380: 0000 0000 0000 0000 0000 0000 0000 0000
00000390: 0000 0000 0000 0000 0000 0000 0000 0000
000003a0: 0000 0000 0000 0000 0000 0000 0000 0000
000003b0: 0000 0000 0000 0000 0000 0000 0000 0000
000003c0: 0000 0000 0000 0000 0000 0000 0000 0000
000003d0: 0000 0000 0000 0000 0000 0000 0000 0000
000003e0: 0000 0000 0000 0000 0000 0000 0000 0000
000003f0: 0000 0000 0000 0000 0000 0000 0000 0000

norm1.running_var f4 [256]
1.0 1.0 1.0 1.0 1.0 1.0 1.0 1.0
1.0 1.0 1.0 1.0 1.0 1.0 1.0 1.0
1.0 1.0 1.0 1.0 1.0 1.0 1.0 1.0
1.0 1.0 1.0 1.0 1.0 1.0 1.0 1.0
1.0 1.0 1.0 1.0 1.0 1.0 1.0 1.0
1.0 1.0 1.0 1.0 1.0 1.0 1.0 1.0
1.0 1.0 1.0 1.0 1.0 1.0 1.0 1.0
1.0 1.0 1.0 1.0 1.0 1.0 1.0 1.0
1.0 1.0 1.0 1.0 1.0 1.0 1.0 1.0
1.0 1.0 1.0 1.0 1.0 1.0 1.0 1.0
1.0 1.0 1.0 1.0 1.0 1.0 1.0 1.0
1.0 1.0 1.0 1.0 1.0 1.0 1.0 1.0
1.0 1.0 1.0 1.0 1.0 1.0 1.0 1.0
1.0 1.0 1.0 1.0 1.0 1.0 1.0 1.0
1.0 1.0 1.0 1.0 1.0 1.0 1.0 1.0
1.0 1.0 1.0 1.0 1.0 1.0 1.0 1.0
1.0 1.0 1.0 1.0 1.0 1.0 1.0 1.0
1.0 1.0 1.0 1.0 1.0 1.0 1.0 1.0
1.0 1.0 1.0 1.0 1.0 1.0 1.0 1.0
1.0 1.0 1.0 1.0 1.0 1.0 1.0 1.0
1.0 1.0 1.0 1.0 1.0 1.0 1.0 1.0
1.0 1.0 1.0 1.0 1.0 1.0 1.0 1.0
1.0 1.0 1.0 1.0 1.0 1.0 1.0 1.0
1.0 1.0 1.0 1.0 1.0 1.0 1.0 1.0
1.0 1.0 1.0 1.0 1.0 1.0 1.0 1.0
1.0 1.0 1.0 1.0 1.0 1.0 1.0 1.0
1.0 1.0 1.0 1.0 1.0 1.0 1.0 1.0
1.0 1.0 1.0 1.0 1.0 1.0 1.0 1.0
1.0 1.0 1.0 1.0 1.0 1.0 1.0 1.0
1.0 1.0 1.0 1.0 1.0 1.0 1.0 1.0
1.0 1.0 1.0 1.0 1.0 1.0 1.0 1.0
1.0 1.0 1.0 1.0 1.0 1.0 1.0 1.0
00000000: 0000 803f 0000 803f 0000 803f 0000 803f
00000010: 0000 803f 0000 803f 0000 803f 0000 803f
00000020: 0000 803f 0000 803f 0000 803f 0000 803f
00000030: 0000 803f 0000 803f 0000 803f 0000 803f
00000040: 0000 803f 0000 803f 0000 803f 0000 803f
00000050: 0000 803f 0000 803f 0000 803f 0000 803f
00000060: 0000 803f 0000 803f 0000 803f 0000 803f
00000070: 0000 803f 0000 803f 0000 803f 0000 803f
00000080: 0000 803f 0000 803f 0000 803f 0000 803f
00000090: 0000 803f 0000 803f 0000 803f 0000 803f
000000a0: 0000 803f 0000 803f 0000 803f 0000 803f
000000b0: 0000 803f 0000 803f 0000 803f 0000 803f
000000c0: 0000 803f 0000 803f 0000 803f 0000 803f
000000d0: 0000 803f 0000 803f 0000 803f 0000 803f
000000e0: 0000 803f 0000 803f 0000 803f 0000 803f
000000f0: 0000 803f 0000 803f 0000 803f 0000 803f
00000100: 0000 803f 0000 803f 0000 803f 0000 803f
00000110: 0000 803f 0000 803f 0000 803f 0000 803f
00000120: 0000 803f 0000 803f 0000 803f 0000 803f
00000130: 0000 803f 0000 803f 0000 803f 0000 803f
00000140: 0000 803f 0000 803f 0000 803f 0000 803f
00000150: 0000 803f 0000 803f 0000 803f 0000 803f
00000160: 0000 803f 0000 803f 0000 803f 0000 803f
00000170: 0000 803f 0000 803f 0000 803f 0000 803f
00000180: 0000 803f 0000 803f 0000 803f 0000 803f
00000190: 0000 803f 0000 803f 0000 803f 0000 803f
000001a0: 0000 803f 0000 803f 0000 803f 0000 803f
000001b0: 0000 803f 0000 803f 0000 803f 0000 803f
000001c0: 0000 803f 0000 803f 0000 803f 0000 803f
000001d0: 0000 803f 0000 803f 0000 803f 0000 803f
000001e0: 0000 803f 0000 803f 0000 803f 0000 803f
000001f0: 0000 803f 0000 803f 0000 803f 0000 803f
00000200: 0000 803f 0000 803f 0000 803f 0000 803f
00000210: 0000 803f 0000 803f 0000 803f 0000 803f
00000220: 0000 803f 0000 803f 0000 803f 0000 803f
00000230: 0000 803f 0000 803f 0000 803f 0000 803f
00000240: 0000 803f 0000 803f 0000 803f 0000 803f
00000250: 0000 803f 0000 803f 0000 803f 0000 803f
00000260: 0000 803f 0000 803f 0000 803f 0000 803f
00000270: 0000 803f 0000 803f 0000 803f 0000 803f
00000280: 0000 803f 0000 803f 0000 803f 0000 803f
00000290: 0000 803f 0000 803f 0000 803f 0000 803f
000002a0: 0000 803f 0000 803f 0000 803f 0000 803f
000002b0: 0000 803f 0000 803f 0000 803f 0000 803f
000002c0: 0000 803f 0000 803f 0000 803f 0000 803f
000002d0: 0000 803f 0000 803f 0000 803f 0000 803f
000002e0: 0000 803f 0000 803f 0000 803f 0000 803f
000002f0: 0000 803f 0000 803f 0000 803f 0000 803f
00000300: 0000 803f 0000 803f 0000 803f 0000 803f
00000310: 0000 803f 0000 803f 0000 803f 0000 803f
00000320: 0000 803f 0000 803f 0000 803f 0000 803f
00000330: 0000 803f 0000 803f 0000 803f 0000 803f
00000340: 0000 803f 0000 803f 0000 803f 0000 803f
00000350: 0000 803f 0000 803f 0000 803f 0000 803f
00000360: 0000 803f 0000 803f 0000 803f 0000 803f
00000370: 0000 803f 0000 803f 0000 803f 0000 803f
00000380: 0000 803f 0000 803f 0000 803f 0000 803f
00000390: 0000 803f 0000 803f 0000 803f 0000 803f
000003a0: 0000 803f 0000 803f 0000 803f 0000 803f
000003b0: 0000 803f 0000 803f 0000 803f 0000 803f
000003c0: 0000 803f 0000 803f 0000 803f 0000 803f
000003d0: 0000 803f 0000 803f 0000 803f 0000 803f
000003e0: 0000 803f 0000 803f 0000 803f 0000 803f
000003f0: 0000 803f 0000 803f 0000 803f 0000 803f

ode_block.f.net.0.weight f4 [256, 5]
-0.19132769 -0.2025764 0.15821962 -0.101483636 -0.15791142 0.41650215 0.1571616 0.326017
-0.20615199 -0.17809513 0.20608047 -0.27716848 -0.25254148 -0.043342832 -0.12661542 -0.33691552
0.2698917 0.39957532 0.05469892 -0.03647238 -0.39926365 -0.15185833 0.13964051 0.20689732
-0.048539538 -0.18814301 0.27077892 -0.35387623 0.25933143 -0.16338098 0.016819635 -0.07355623
0.053716693 -0.15210426 0.3428014 -0.002268178 0.3646596 0.4455022 -0.21512839 -0.30996054
0.4285178 0.38989827 -0.2699514 -0.05951827 -0.37066305 -0.35481438 0.10214015 0.15228987
0.08837172 -0.099152006 0.41472772 0.080549955 -0.26316935 -0.041084338 0.12189321 0.17888708
-0.30320793 0.18564747 -0.20085615 -0.34813103 -0.24515592 0.41479284 0.36823466 0.39638147
0.25432637 0.41373906 -0.027595002 -0.17643425 0.20108135 -0.15836628 -0.27461398 -0.10129141
0.107026204 0.23581329 -0.18243669 -0.27320465 0.07077745 -0.27493325 -0.3052 0.24955973
-0.07266443 0.39286113 0.40923735 0.13615425 0.15362734 0.13682096 0.024101524 -0.013343266
0.0075570783 0.18076609 0.46773833 -0.087670915 -0.13835718 -0.11965897 -0.16507098 0.06284059
0.33293152 0.36990598 0.19209296 -0.3151771 -0.25605154 -0.0815567 -0.06638718 0.023664994
-0.42778155 0.13949323 -0.33106038 -0.2551679 -0.3915454 0.40200907 -0.41772664 0.35194653
-0.026442368 -0.06779382 0.2990181 -0.015771827 0.29179075 0.33628568 -0.3976558 0.18333106
0.09155219 0.12792015 0.110716455 0.15423158 -0.1728405 -0.041589685 0.4379494 0.3022928
-0.015492851 -0.41213948 0.017899469 -0.31519502 0.38902155 -0.28624308 -6.2995365e-05 -0.079224065
0.09021864 0.41887027 0.03299735 0.2697136 0.35062313 0.36441386 -0.16466147 -0.10429868
0.21254757 -0.12079129 0.21047759 -0.09521128 -0.305628 0.18113807 0.0767564 0.21072957
0.42840555 0.2970782 0.4405459 0.01747296 -0.37815028 -0.32052192 -0.2713317 -0.40055218
-0.2506471 -0.43275356 -0.43104863 -0.2886745 -0.41555154 -0.28502467 0.17276594 0.41008425
-0.15675066 -0.097434826 0.28420955 -0.20267224 -0.17514534 0.24667516 -0.34898093 0.07548678
0.409301 0.09550854 0.14350452 -0.24358921 -0.0026776174 0.024013542 0.1019414 0.1740233
0.39966422 -0.3328228 0.028510066 -0.24502538 -0.3438527 -0.04267586 -0.4144921 0.3135531
0.023879506 -0.2632826 0.24498507 -0.40915802 -0.16647045 -0.084202245 -0.3635916 -0.29686514
-0.07599374 0.34498152 0.45280546 0.27577996 -0.25055265 -0.27011707 0.39669627 0.16066515
0.008517432 0.06694202 -0.35631356 -0.15066603 0.46850958 -0.12085199 0.004296449 -0.3966354
-0.26407233 -0.032640804 -0.29404584 -0.034217708 0.20218997 -0.40692225 0.15860935 -0.26213664
-0.19670215 0.19586185 0.38856962 -0.08472973 -0.20009767 -0.37620652 -0.2207261 -0.3785329
-0.115316026 0.07380313 -0.42960387 0.35084623 0.28187895 -0.4647193 -0.23823178 0.14754623
-0.08705959 -0.05454122 -0.20227942 0.35473272 -0.255945 0.42185146 0.041713253 0.09758883
0.35468924 -0.036748722 -0.23730858 -0.0781485 0.3590979 -0.33226332 0.09948096 -0.42393082
00000000: 68eb 43be 3070 4fbe 5304 223e a7d6 cfbd
00000010: 88b3 21be c53f d53e f8ee 203e b3eb a63e
00000020: 8219 53be 925e 36be c206 533e 07e9 8dbe
00000030: 1e4d 81be 4188 31bd 79a7 01be 3180 acbe
00000040: 3f2f 8a3e 2395 cc3e fa0b 603d 1064 15bd
00000050: 496c ccbe c080 1bbe ecfd 0e3e e4dc 533e
00000060: 65d1 46bd 90a8 40be 89a3 8a3e 442f b5be
00000070: 17c7 843e 584d 27be 55c9 893c a6a4 96bd
00000080: 0906 5c3d 38c1 1bbe aa83 af3e b6a5 14bb
00000090: aab4 ba3e dd18 e43e 9e4a 5cbe 26b3 9ebe
000000a0: af66 db3e bfa0 c73e 1237 8abe 6ec9 73bd
000000b0: 8cc7 bdbe 3baa b5be db2e d13d e0f1 1b3e
000000c0: 3bfc b43d 3510 cbbd 3157 d43e 60f7 a43d
000000d0: 22be 86be 0d48 28bd 26a3 f93d 2d2e 373e
000000e0: 123e 9bbe 5f1a 3e3e 3cad 4dbe 3b3e b2be
000000f0: 270a 7bbe ba5f d43e 4189 bc3e 83f2 ca3e
00000100: 1137 823e 9bd5 d33e ea0e e2bc 2eab 34be
00000110: 45e8 4d3e c52a 22be 349a 8cbe df71 cfbd
00000120: 8e30 db3d 0a79 713e afd0 3abe 7be1 8bbe
00000130: c5f3 903d 0dc4 8cbe 2d43 9cbe 968c 7f3e
00000140: 17d1 94bd 1825 c93e 8f87 d13e 056c 0b3e
00000150: 7c50 1d3e cb1a 0c3e 8f70 c53c b79d 5abc
00000160: 5ea1 f73b bf1a 393e 667b ef3e cf8c b3bd
00000170: 81ad 0dbe c30f f5bd 5e08 29be 91b2 803d
00000180: 0076 aa3e 5164 bd3e 04b4 443e e55e a1be
00000190: 3019 83be 3307 a7bd 00f6 87bd 17dd c13c
000001a0: 2f06 dbbe 50d7 0e3e bf80 a9be 5ea5 82be
000001b0: a378 c8be 22d4 cd3e 44e0 d5be 5632 b43e
000001c0: aa9d d8bc 7cd7 8abd e718 993e eb33 81bc
000001d0: 9965 953e a32d ac3e 8b99 cbbe 23bb 3b3e
000001e0: b77f bb3d 80fd 023e 4fbf e23d e2ee 1d3e
000001f0: 1afd 30be f259 2abd e73a e03e 1fc6 9a3e
00000200: bad5 7dbc f203 d3be e8a1 923c 3e61 a1be
00000210: d52d c73e 748e 92be 611c 84b8 3a40 a2bd
00000220: 8dc4 b83d 2a76 d63e 3b28 073d e717 8a3e
00000230: e084 b33e 7494 ba3e 049d 28be 8c9a d5bd
00000240: 12a6 593e 6d61 f7bd 7087 573e 22fe c2bd
00000250: 467b 9cbe 427c 393e 7632 9d3d 7ec9 573e
00000260: f957 db3e a21a 983e 3b8f e13e 7423 8f3c
00000270: ea9c c1be 731b a4be fdeb 8abe 2d15 cdbe
00000280: d154 80be e091 ddbe 68b2 dcbe 25cd 93be
00000290: 2cc3 d4be c1ee 91be 8ee9 303e 90f6 d13e
000002a0: 3f83 20be e98b c7bd ea83 913e 5089 4fbe
000002b0: 4d59 33be 6a98 7c3e a1ad b2be d098 9a3d
000002c0: e78f d13e fb99 c33d d9f2 123e 736f 79be
000002d0: f77a 2fbb 0cb8 c43c a7c6 d03d 2a33 323e
000002e0: caa0 cc3e c067 aabe f18d e93c efe7 7abe
000002f0: 760d b0be e2cc 2ebd 4f38 d4be 088a a03e
00000300: f49e c33c facc 86be 5edd 7a3e 297d d1be
00000310: 3b77 2abe 3a72 acbd ae28 babe b5fe 97be
00000320: 9ba2 9bbd 6ba1 b03e 1ed6 e73e 0833 8d3e
00000330: 7048 80be c94c 8abe c61b cb3e 6885 243e
00000340: b38c 0b3c e618 893d bb6e b6be 3248 1abe
00000350: 7de0 ef3e 4081 f7bd 3ac9 8c3b cc13 cbbe
00000360: 7d34 87be 5db2 05bd 2d8d 96be de27 0cbd
00000370: e30a 4f3e 1d58 d0be 7d6a 223e c636 86be
00000380: 4a6c 49be 0290 483e 99f2 c63e c886 adbd
00000390: 67e6 4cbe 249e c0be 0606 62be 10cf c1be
000003a0: cf2a ecbd 1826 973d 0af5 dbbe 1ea2 b33e
000003b0: 7052 903e b0ef edbe 08f3 73be 5c16 173e
000003c0: 4c4c b2bd 9d66 5fbd 5622 4fbe 879f b53e
000003d0: 390b 83be eafc d73e 84db 2a3d a7dc c73d
000003e0: d499 b53e d485 16bd 0501 73be 520c a0bd
000003f0: aedb b73e 6b1e aabe acbc cb3d 760d d9be

ode_block.f.net.0.bias f4 [256]
0.0055128722 -0.40306967 0.19382252 -0.3154704 -0.16522866 0.32004955 0.44615138 -0.2756847
-0.17520583 0.060964268 0.2087352 -0.0506574 -0.1630166 -0.21628824 0.18459368 0.47614798
-0.22738446 0.21487466 0.27386335 0.36163253 -0.03375819 0.028505588 0.35772973 0.28039634
0.48980162 -0.12587892 0.16179761 0.31353983 -0.2894703 0.08434604 -0.07019434 0.2809986
-0.17462216 0.02988033 0.3147553 -0.38877097 -0.37192082 -0.23699887 0.31967407 0.28745097
-0.3081795 0.0791647 -0.23903364 -0.16361246 0.40248248 0.24877277 -0.13242267 0.08822639
0.08420812 0.16105445 -0.17344771 -0.24081093 0.3235875 0.06664758 0.20645903 -0.17029077
0.2522545 0.35689953 0.2788478 0.12546298 0.43922877 -0.00089308794 0.13016006 0.44336492
0.46171707 -0.17939311 0.4047486 0.19143488 -0.05166761 0.39177436 -0.22487684 0.32407323
0.44989905 -0.31324998 -0.23166284 -0.40587196 -0.10449632 -0.4032024 -0.14003962 0.14416386
0.3262238 0.26009572 0.262038 0.20824471 -0.20675114 -0.30393878 0.020466344 0.43867838
0.013738023 -0.0061214766 -0.3011241 -0.19820344 -0.3058284 0.38309708 -0.0554268 -0.37974337
0.06702369 0.028787818 -0.015105098 0.20793778 0.27231663 -0.41119638 -0.3116848 -0.014244653
-0.38985968 -0.35433888 0.4214089 -0.031033449 -0.20544471 -0.14513257 -0.35718498 0.35425028
-0.084318124 -0.25151718 -0.3458439 0.30241483 -0.04463714 -0.07537831 -0.106786914 -0.18721458
0.08254955 0.33875415 -0.27053198 0.024169173 -0.2925302 -0.19931537 0.42646682 0.027841616
0.44082904 -0.09614542 -0.21820639 -0.19947796 0.39508423 -0.2958162 0.22662172 0.13541438
0.15743107 0.25072354 -0.09688779 0.30851778 -0.32377064 -0.13088895 0.36128256 0.13978791
-0.042544305 -0.10678538 -0.26011446 0.30663213 -0.0036157153 0.022193393 0.09578755 0.39613983
-0.21001881 -0.1463552 0.32352582 0.25059715 -0.2019245 -0.40013477 0.09626318 0.2701232
0.11719026 0.34864277 -0.3226827 0.21582974 -0.2634189 0.2482351 0.30722103 0.16797401
0.4042722 -0.27477384 -0.37487373 -0.4324027 0.3171374 0.19459045 -0.32004628 0.258466
0.41127813 -0.43569934 0.30108997 0.11190885 0.04967797 0.39837027 0.40937483 0.21201397
0.35674262 0.22474603 0.10179842 -0.40090045 0.13782813 -0.31940705 0.15148549 0.09472104
0.010367975 -0.31058282 -0.24981627 0.324883 0.2542459 0.21557148 -0.09150337 -0.056754198
-0.077621706 0.3002738 -0.20013912 0.28909573 0.34086168 -0.3686056 0.004189541 -0.051446937
-0.20377032 0.20149781 -0.026593875 0.4305666 -0.27262688 0.23957007 -0.36167964 -0.2035118
0.023620175 0.38689232 0.21824642 -0.35943 0.06496796 -0.23037124 0.04369765 -0.38166484
-0.10811326 0.31943992 -0.38149324 -0.42698783 0.12775303 0.06439669 -0.06603883 0.41869453
-0.267112 -0.24842326 -0.27456525 -0.06787065 -0.10936896 0.2814662 -0.019915832 0.1615195
-0.18079023 0.35628346 0.40381747 -0.3829135 -0.123105176 -0.3895676 0.20627862 -0.38310942
-0.14777274 0.45273376 -0.36956272 0.3754858 0.070495896 0.3652937 -0.16676325 0.3055243
00000000: 53a5 b43b 265f cebe 6979 463e 5685 a1be
00000010: b431 29be 89dd a33e f46d e43e 8c26 8dbe
00000020: 2869 33be abb5 793d aebe 553e 227e 4fbd
00000030: d3ed 26be aa7a 5dbe 2006 3d3e abc9 f33e
00000040: 79d7 68be 1a08 5c3e d137 8c3e e627 b93e
00000050: 0746 0abd 8d84 e93c 5a28 b73e 1c90 8f3e
00000060: 47c7 fa3e 67e6 00be 46ae 253e 4b88 a03e
00000070: 7335 94be 9ebd ac3d 0dc2 8fbd 0cdf 8f3e
00000080: 27d0 32be 98c7 f43c 9b27 a13e fd0c c7be
00000090: 686c bebe d5af 72be 52ac a33e c62c 933e
000000a0: b4c9 9dbe 1a21 a23d 3cc5 74be 068a 27be
000000b0: 2f12 ce3e 4abe 7e3e cf99 07be 0ab0 b43d
000000c0: 4f75 ac3d 75eb 243e 479c 31be 2497 76be
000000d0: 43ad a53e 877e 883d ff69 533e b460 2ebe
000000e0: 8027 813e 89bb b63e 24c5 8e3e 5e79 003e
000000f0: 98e2 e03e 1e1e 6aba ae48 053e ba00 e33e
00000100: 2e66 ec3e d4b2 37be 353b cf3e 8107 443e
00000110: 6aa1 53bd a696 c83e 1d46 66be edec a53e
00000120: 2b59 e63e 4d62 a0be 0639 6dbe 73ce cfbe
00000130: 2b02 d6bd 8c70 cebe 8c66 0fbe b19f 133e
00000140: ce06 a73e 442b 853e d829 863e 1a3e 553e
00000150: 92b6 53be dd9d 9bbe 09a9 a73c 749a e03e
00000160: 7215 613c ab96 c8bb f02c 9abe d8f5 4abe
00000170: 8a95 9cbe 4d25 c43e 3607 63bd b96d c2be
00000180: b743 893d 6ed4 eb3c 5f7b 77bc a4ed 543e
00000190: 166d 8b3e 5588 d2be 2695 9fbe 6862 69bc
000001a0: b09b c7be e86b b5be e8c2 d73e dc39 febc
000001b0: 1960 52be a29d 14be f3e0 b6be 4b60 b53e
000001c0: fbae acbd dcc6 80be 7412 b1be 1ed6 9a3e
000001d0: 6fd5 36bd f25f 9abd 19b3 dabd 2eb5 3fbe
000001e0: bd0f a93d 2f71 ad3e 2b83 8abe 6efe c53c
000001f0: 85c6 95be 5419 4cbe dc59 da3e 1a14 e43c
00000200: 58b4 e13e e4e7 c4bd 7f71 5fbe f343 4cbe
00000210: 7b48 ca3e 3975 97be 860f 683e 11aa 0a3e
00000220: 9c35 213e d65e 803e 1b6d c6bd 0bf6 9d3e
00000230: 44c5 a5be c107 06be 07fa b83e 9024 0f3e
00000240: f042 2ebd 4bb2 dabd b92d 85be e3fe 9c3e
00000250: a3f5 6cbb ebce b53c 432c c43d d7d2 ca3e
00000260: 2c0f 57be 23de 15be 2da5 a53e 454e 803e
00000270: 4cc5 4ebe 77de ccbe a125 c53d 974d 8a3e
00000280: 7201 f03d 4e81 b23e ab36 a5be 7902 5d3e
00000290: d8de 86be 5831 7e3e 134c 9d3e 6101 2c3e
000002a0: c4fc ce3e 28af 8cbe 73ef bfbe e363 ddbe
000002b0: d55f a23e b842 473e 1bdd a3be a855 843e
000002c0: 0c93 d23e fc13 dfbe 7728 9a3e 7830 e53d
000002d0: 217b 4b3d 30f7 cb3e 9499 d13e 311a 593e
000002e0: f8a6 b63e d323 663e b17b d03d d342 cdbe
000002f0: d122 0d3e 5289 a3be 031f 1b3e 1bfd c13d
00000300: 70de 293c b604 9fbe d6cf 7fbe 1157 a63e
00000310: 852c 823e c5be 5c3e 1e66 bbbd 1777 68bd
00000320: 21f8 9ebd 7dbd 993e 45f1 4cbe 5b04 943e
00000330: 6c85 ae3e e0b9 bcbe 6b48 893b 06ba 52bd
00000340: 2ba9 50be 7155 4e3e 66db d9bc 3a73 dc3e
00000350: c095 8bbe db51 753e 132e b9be 6665 50be
00000360: 197f c13c c016 c63e fd7b 5f3e 3507 b8be
00000370: ec0d 853d 70e6 6bbe 4ffc 323d 9369 c3be
00000380: 7c6a ddbd a18d a33e 1553 c3be 269e dabe
00000390: b1d1 023e 69e2 833d 5e3f 87bd 215f d63e
000003a0: e7c2 88be ab62 7ebe d193 8cbe c4ff 8abd
000003b0: d5fc dfbd 561c 903e 8726 a3bc 5e65 253e
000003c0: 1321 39be c96a b63e 2ac1 ce3e 3d0d c4be
000003d0: 911e fcbd 6875 c7be b43a 533e eb26 c4be
000003e0: bd51 17be b8cc e73e 5337 bdbe ad3f c03e
000003f0: 2760 903d c707 bb3e fcc3 2abe ae6d 9c3e

ode_block.f.net.2.weight f4 [256, 256]
0.00754534 -0.0011117737 0.05224052 -0.0673621 -0.05534274 0.056608424 -0.04261655 -0.05020545
-0.0074734935 -0.020078497 -0.013378586 -0.038033396 0.017402586 -0.04421402 0.0051553897 0.031442728
0.0068448605 0.0032602523 0.018861774 -0.024178566 -0.01190614 -0.031412017 -0.04729721 -0.038202394
0.058973063 -0.015429457 0.013534702 0.038060766 -0.009850984 -0.038661107 -0.047461435 -0.023025211
0.022308528 -0.058986597 -0.002122923 0.017805113 0.045896903 0.020240624 0.007262458 0.0427885
0.023427563 0.015968025 -0.027676024 -0.04972663 -0.004605952 -0.015321357 0.004589826 -0.011685313
0.025269244 0.04126147 -0.030632226 -0.06444094 -0.03703387 -0.02480749 0.030072559 -0.040232986
-0.010977094 -0.018303802 -0.044100292 0.02314858 -0.031185357 -0.008470782 -0.049059212 -0.011274365
0.008881606 -0.0050724535 -0.028717307 0.013580967 -0.021494325 -0.040969487 -0.054197196 -0.018282617
-0.06433151 0.051876247 -0.029703338 -0.030874377 0.00062221836 0.025109546 -0.01111942 0.03788066
-0.0411345 0.017315028 -0.005246134 -0.05595694 -0.029216506 0.015905367 0.011942356 0.040117033
0.035521053 -0.039159823 -0.032139435 -0.01831029 -0.049801387 -0.02192202 -0.05617663 0.018673211
0.045096852 -0.003012015 -0.04983257 -0.041075308 -0.029374538 0.0097103035 -0.0034843632 0.0040710974
0.06785898 0.029008005 0.00557166 -0.012645118 0.02958556 0.017050661 -0.060466513 -0.042091455
-0.0029720762 0.017473636 0.022747403 -0.04257728 -0.067020744 -0.011286396 -0.0017588307 0.018446572
-0.0171879 0.04778354 -0.0038778603 0.040401097 -0.04338555 0.01982985 0.0023690087 -0.036120847
0.040168323 -0.069530725 0.045493316 0.015741596 0.0009351297 0.024514306 0.009196443 0.021657467
0.034753725 -0.049172964 0.036288843 -0.014302137 -0.01485066 0.0073670666 0.042981114 -0.03913889
-0.047163963 0.030555028 -0.02558309 0.024888482 -0.01430304 0.012166166 0.04251412 -0.02541567
-0.02157969 0.025499895 -0.0015128976 -0.011149348 -0.06001 0.06313169 -0.0023974245 -0.016482357
-0.031323414 -0.017349647 0.0254675 -0.0065396605 0.048679788 -0.011917652 -0.015801596 0.03524827
-0.001617223 -0.017498918 0.015874447 0.048724186 0.010719576 0.038483948 0.0351724 0.012615033
0.016567003 0.029215729 0.0010707761 0.04813445 0.052586954 0.013965759 -0.008394108 0.051070217
-0.053878978 0.040975902 0.027465224 0.03986214 0.0042239693 -0.051570125 0.039661705 -0.027304607
0.011321643 0.03026693 -0.06289999 0.013025062 -0.026756631 0.038930777 -0.039793886 0.03859688
0.033842023 0.03448218 0.05488674 0.003302523 -0.061756026 0.03965636 -0.0019737063 -0.003775062
-0.054981023 -0.018958008 -0.035280604 0.056158274 0.039331015 0.041069135 0.037768103 -0.043869615
-0.03315556 -0.024464456 -0.032170694 0.04353782 0.016149167 0.045034267 -0.007884957 -0.054185487
-0.023195026 0.038764425 0.03296099 0.014305493 -0.02229597 -0.06459896 -0.03870159 0.029645858
-0.030269476 0.029928353 0.02371286 -0.029368088 0.032960244 -0.011359554 -0.007261401 -0.02436925
-0.06439564 0.0026223469 0.011986624 -0.03657938 0.038115595 -0.056065988 -0.06530229 -0.0436853
-0.021577805 -0.01206014 -0.015469039 0.021155743 -0.059804402 0.0040140604 -0.003530755 0.009864774
00000000: e63e f73b efb8 91ba 28fa 553d 24f5 89bd
00000010: 12af 62bd 3cde 673d b18e 2ebd 3ba4 4dbd
00000020: 35e4 f4bb a97b a4bc db31 5bbc e8c8 1bbd
00000030: de8f 8e3c c319 35bd 8bee a83b 17ca 003d
00000040: da4a e03b f5a9 553b 0284 9a3c 2112 c6bc
00000050: f811 43bc e3a9 00bd b8ba 41bd 1d7a 1cbd
00000060: bd8d 713d d5cb 7cbc a8c0 5d3c 9be5 1b3d
00000070: 0666 21bc 1c5b 1ebd ec66 42bd 5e9f bcbc
00000080: 60c0 b63c ee9b 71bd bd20 0bbb 07dc 913c
00000090: 64fe 3b3d aacf a53c eaf9 ed3b ff42 2f3d
000000a0: 29eb bf3c 60cf 823c d4b8 e2bc 27ae 4bbd
000000b0: 87ed 96bb 6e06 7bbc 4066 963b c173 3fbc
000000c0: 7201 cf3c ca01 293d 6ff0 fabc 9df9 83bd
000000d0: d4b0 17bd 1439 cbbc ba5a f63c 58cb 24bd
000000e0: 45d9 33bc dbf1 95bc 82a2 34bd 17a2 bd3c
000000f0: 6f78 ffbc 09c9 0abc 50f2 48bd 1db8 38bc
00000100: 2884 113c d336 a6bb 8f40 ebbc b482 5e3c
00000110: de14 b0bc 9fcf 27bd e1fd 5dbd 6dc5 95bc
00000120: 3dc0 83bd 307c 543d 6a54 f3bc 43ec fcbc
00000130: 5e1c 233a 89b2 cd3c 3a2e 36bc c028 1b3d
00000140: a67c 28bd 3fd8 8d3c c3e7 abbb 1b33 65bd
00000150: 7457 efbc f94b 823c dfa9 433c c251 243d
00000160: 867e 113d 0d66 20bd a4a4 03bd 76ff 95bc
00000170: 8afc 4bbd cf95 b3bc 7719 66bd 90f8 983c
00000180: 7ab7 383d 3a65 45bb 3d1d 4cbd 953e 28bd
00000190: dfa2 f0bc f717 1f3c ea59 64bb d766 853b
000001a0: a6f9 8a3d 32a2 ed3c 7992 b63b 782d 4fbc
000001b0: 6b5d f23c d4ad 8b3c bcab 77bd 1768 2cbd
000001c0: 2ac7 42bb df24 8f3c c358 ba3c 8465 2ebd
000001d0: 2c42 89bd 93ea 38bc 9188 e6ba 441d 973c
000001e0: a4cd 8cbc acb8 433d b323 7ebb 9f7b 253d
000001f0: 0cb5 31bd 3672 a23c 5f41 1b3b 74f3 13bd
00000200: 8a87 243d 2066 8ebd 3357 3a3d 85f4 803c
00000210: 7e23 753a 3ad2 c83c adac 163c 006b b13c
00000220: ec59 0e3d 9769 49bd 9ca3 143d 8353 6abc
00000230: 2f50 73bc 6f67 f13b f70c 303d 1a50 20bd
00000240: 002f 41bd 8a4e fa3c a193 d1bc eee2 cb3c
00000250: 4c57 6abc 9954 473c 4923 2e3d 8634 d0bc
00000260: e4c7 b0bc 28e5 d03c 6b4c c6ba c1ab 36bc
00000270: 0ccd 75bd 304b 813d 1c1e 1dbb 0206 87bc
00000280: fb4c 00bd d920 8ebc 38a1 d03c a64a d6bb
00000290: 7564 473d 4142 43bc 5972 81bc 7d60 103d
000002a0: 00f9 d3ba e459 8fbc 210b 823c 0393 473d
000002b0: 29a1 2f3c 58a1 1d3d ef10 103d 49af 4e3c
000002c0: 86b7 873c d355 ef3c 4959 8c3a a128 453d
000002d0: 6b65 573d a4d0 643c 7187 09bc 012f 513d
000002e0: 34b0 5cbd 59d6 273d c0fe e03c 7c46 233d
000002f0: 3969 8a3b 323b 53bd 5074 223d e9ad dfbc
00000300: 6a7e 393c 5af2 f73c b6d1 80bd 1267 553c
00000310: b930 dbbc e175 1f3d eafe 22bd c317 1e3d
00000320: ef9d 0a3d 303d 0d3d ebd0 603d 246f 583b
00000330: e3f3 7cbd b56e 223d 4c59 01bb 0867 77bb
00000340: c833 61bd d34d 9bbc 6582 10bd 3806 663d
00000350: 8f19 213d 1c38 283d bab2 1a3d a0b0 33bd
00000360: 20ce 07bd af69 c8bc 6bc5 03bd b754 323d
00000370: 424b 843c da75 383d e82f 01bc 9af1 5dbd
00000380: 7f03 bebc 72c7 1e3d 1a02 073d 9661 6a3c
00000390: 0aa6 b6bc 764c 84bd 8f85 1ebd dfdb f23c
000003a0: b1f7 f7bc 4e2c f53c 7941 c23c 5895 f0bc
000003b0: 5201 073d 6c1d 3abc 0cf1 edbb 05a2 c7bc
000003c0: dce1 83bd aedb 2b3b 8c63 443c 43d4 15bd
000003d0: 191f 1c3d 73a5 65bd 35bd 85bd 5bef 32bd
000003e0: f0c3 b0bc e597 45bc da71 7dbc cf4e ad3c
000003f0: 76f5 74bd 6188 833b 3d64 67bb dc9f 213c
